{
    "format": "layers-model",
    "generatedBy": "TensorFlow.js Converter v3.20.0",
    "convertedBy": "Jellyfin Upscaler Plugin",
    "version": "compact",
    "modelTopology": {
        "class_name": "RDN",
        "config": [
            {
                "class_name": "Conv2D",
                "config": {
                    "filters": 64,
                    "kernel_size": [3, 3],
                    "padding": "same",
                    "activation": "linear",
                    "name": "shallow_feature_extraction"
                }
            },
            {
                "class_name": "RDB",
                "config": {
                    "growth_rate": 32,
                    "num_layers": 6,
                    "num_blocks": 16,
                    "name": "residual_dense_blocks"
                }
            },
            {
                "class_name": "Conv2D",
                "config": {
                    "filters": 64,
                    "kernel_size": [1, 1],
                    "padding": "same",
                    "activation": "linear",
                    "name": "global_feature_fusion"
                }
            },
            {
                "class_name": "PixelShuffleUpsampler",
                "config": {
                    "scale": 4,
                    "num_filters": 64,
                    "name": "upsampler"
                }
            },
            {
                "class_name": "Conv2D",
                "config": {
                    "filters": 3,
                    "kernel_size": [3, 3],
                    "padding": "same",
                    "activation": "linear",
                    "name": "reconstruction"
                }
            }
        ]
    },
    "weightsManifest": [
        {
            "paths": ["weights.bin"],
            "weights": [
                {
                    "name": "shallow_feature_extraction/kernel",
                    "shape": [3, 3, 3, 64],
                    "dtype": "float32"
                },
                {
                    "name": "shallow_feature_extraction/bias",
                    "shape": [64],
                    "dtype": "float32"
                },
                {
                    "name": "residual_dense_blocks/rdb_1/conv_1/kernel",
                    "shape": [3, 3, 64, 32],
                    "dtype": "float32"
                },
                {
                    "name": "residual_dense_blocks/rdb_1/conv_1/bias",
                    "shape": [32],
                    "dtype": "float32"
                },
                {
                    "name": "global_feature_fusion/kernel",
                    "shape": [1, 1, 64, 64],
                    "dtype": "float32"
                },
                {
                    "name": "global_feature_fusion/bias",
                    "shape": [64],
                    "dtype": "float32"
                },
                {
                    "name": "reconstruction/kernel",
                    "shape": [3, 3, 3, 3],
                    "dtype": "float32"
                },
                {
                    "name": "reconstruction/bias",
                    "shape": [3],
                    "dtype": "float32"
                }
            ]
        }
    ],
    "metadata": {
        "description": "Residual Dense Network - Dense Connections for Feature Reuse",
        "architecture": "RDN",
        "scale": 4,
        "optimizedFor": ["feature-reuse", "dense-connections", "information-flow"],
        "requirements": {
            "minVRAM": "5GB",
            "recommendedVRAM": "8GB",
            "performance": "high"
        },
        "features": [
            "residual-dense-blocks",
            "local-feature-fusion",
            "global-feature-fusion",
            "hierarchical-features",
            "contiguous-memory-mechanism"
        ],
        "benchmarks": {
            "inference_time": "400ms @ 1080p",
            "psnr_improvement": "0.3-0.8dB over EDSR",
            "parameter_efficiency": "excellent"
        }
    }
}